data.pt (torch, 5418 bytes, 6 tensors)

dense1.weight f4 [24, 4]
00000000: 1c02 14be df6c a73e 4a46 30be a47f 89be
00000010: 67ab 54bd 4b25 b03e 5af7 a3be 84f7 e63e
00000020: 0316 3ebe 3e81 5abe a1f2 42be 4b1a 70ba
00000030: 9558 133e 1abf da3e 2f47 67be 730d 9a3e
00000040: 0e47 9c3e 15bb 3abd 8478 783e dcb5 ca3e
00000050: 68c1 dc3e 06f7 eebe 622f a8be 4ab9 603d
00000060: 53d5 b73d 0223 2a3e 5243 cc3d 35b4 723e
00000070: e88c d43e 83a0 c73c a218 763e 7877 aa3e
00000080: 75f0 f73b 378a da3e 7936 423e 9bdc babe
00000090: aade 363e 07d6 bf3d 7ca1 ab3d bba0 d73d
000000a0: f599 ec3e 9524 403e fa11 d6be 128c 213e
000000b0: 11ba 2ebe 6c28 27be e65e b6be b512 143e
000000c0: df77 8bbe 5167 a4bd efae d5be 8ce6 b83e
000000d0: f21a 343e be7e bfbd ac13 4d3e 323d 4dbe
000000e0: 3c37 0a3d 0c01 b3bd c229 e93e aafd c23d
000000f0: a6d6 dabe 02c0 5abe d0c7 de3e 4cac dc3e
00000100: 1f1b c3bd 1ffa 96be a3c9 3e3e 3a0a cabe
00000110: b5e1 433d d159 f73e 7c77 c83d 6716 97be
00000120: 19ef 0c3e 73d5 2c3c c643 9abe b953 a0bd
00000130: 438b 633a 85a9 9abe a768 66bd 6f5d 63bd
00000140: dcfb c53e bae8 573e e91e a0be a7f3 2e3e
00000150: 775c 703c 62a1 ca3e 5bd1 be3d 09e8 c13e
00000160: d30d 023f 6143 633e 4c42 39be 0dfe ad3e
00000170: d3d9 e03d 609e 683e 8145 dbbe 39a3 b43e
-0.1445393 0.3270025 -0.17214313 -0.26855195 -0.051921275 0.34403452 -0.32024652 0.45110714
-0.18563084 -0.21338364 -0.19037868 -0.00091591914 0.1438926 0.42723924 -0.22585748 0.30088386
0.3052296 -0.04558857 0.24264723 0.39591873 0.43116307 -0.4667284 -0.3284865 0.054864205
0.08976235 0.16614917 0.09973778 0.23701556 0.41513753 0.02436853 0.24032834 0.33294272
0.0075665065 0.42683575 0.18966092 -0.36496434 0.17858377 0.09366994 0.0838041 0.10528704
0.4621121 0.18763955 -0.4181059 0.15776089 -0.17063166 -0.16324013 -0.35619277 0.14460261
-0.27239892 -0.080275185 -0.41735026 0.36113393 0.17588404 -0.09350346 0.20027035 -0.20042875
0.03374408 -0.08740434 0.4553967 0.09521039 -0.4274189 -0.21362308 0.4351182 0.43100202
-0.09526657 -0.29487702 0.18631606 -0.39460927 0.047822673 0.48310712 0.09788415 -0.2950928
0.13763084 0.010548937 -0.30129832 -0.07828469 0.00086801144 -0.30207458 -0.056252148 -0.055509027
0.38668716 0.21084872 -0.31273583 0.17085133 0.014670483 0.3957625 0.09317275 0.3787234
0.50802344 0.22193672 -0.18091697 0.33982888 0.10979047 0.22716665 -0.42826465 0.3528078

dense1.bias f4 [24]
00000000: 4d7c d7be 2d0f eebe 468f c33e d904 343e
00000010: d32e cf3e a58d d6bd a2c2 5bbd 31f5 953e
00000020: 4260 903e c599 2bbe 06ff e1bc ee6e 9f3d
00000030: 0c6d de3e f496 84be d5ed a1bb 575b 073e
00000040: 106a 883e 06d6 cb3e 5ab9 5a3d db71 cd3d
00000050: 167e eabe 57ce d43e 2843 293e 8cda c7be
-0.4208702 -0.46495953 0.38195246 0.17579974 0.40465412 -0.10476235 -0.053652413 0.2928863
0.2819844 -0.16757877 -0.027587425 0.0778483 0.4344257 -0.25896418 -0.004941682 0.13218437
0.2664342 0.39811724 0.05339942 0.10031482 -0.4579932 0.41563675 0.16529524 -0.39033926

dense2.weight f4 [24, 24]
00000000: fb1f 1a3e e907 253e 20c5 0d3d d485 b3bd
00000010: aa64 a03c 55de 2dbe 8625 113e 2fe3 c43d
00000020: 90da b13d c486 29be 8393 e23d 78db 943c
00000030: 9a58 f7bd c231 ea3d 1e6a 4cbe 485e ecbb
00000040: d32d 703d 3e91 6fbd 301f 25be f9d1 393e
00000050: bbd2 2e3e 8aa3 e4bd 358d c5bd c08b fc3d
00000060: d623 443d 7710 073e f7d3 0a3e 14ed ac3d
00000070: 67e5 a6bd 2c4e ad3c 0074 05be 1ff7 b6bd
00000080: 429e 973c bb95 673d 9f32 3fbe 2d6e 183e
00000090: 2ac7 40bd 68c2 2f3e 0611 a53d 3b7e 67bd
000000a0: 7fa7 b8bd db58 d93d c07a 2abc 216a 403d
000000b0: a6fa 79bd af00 863d da94 0cbe 224a 983d
000000c0: f1ca e73d ac58 bd3c 716f c3bd d4e9 163e
000000d0: 7007 00be d94c 41bd 76a0 f73d b382 88bd
000000e0: 7816 1f3e 1bf4 7a3b dc18 673d bfdf 3e3d
000000f0: 3574 92bd 32e4 c93c 43e5 aabd 2984 1cbe
00000100: 513a 8c3d 30e2 4dbe 0e94 dd3d ea22 d83d
00000110: 6c26 83bd 15bb 0c3e f138 51bd 88fd 0cbe
00000120: 9994 0fbe 4249 093d a084 29be c8ad 243e
00000130: ead6 40bd cfd8 073d 3203 a33c 508e 553e
00000140: aa77 a63d 6bb0 ca3d 247f 3b3e 8175 18be
00000150: 2056 193d 8157 84bb 0783 05bd 0faa 4b3e
00000160: b760 e63d 8328 5b3e 0ff4 79bc 9f8f f43d
00000170: 67d2 1bbe addd 1e3d 96ec 30bd 5641 93bd
00000180: 4293 a53d 2c68 9fbd 0882 edbc 8cc9 163e
00000190: 6b20 52bc e62c b3bd 5a80 db3d 855d bdbd
000001a0: d195 a53d 8ced f5bd f77a 20bc 8299 02be
000001b0: 4de6 e83d e52c 883d f56d 6cbd 590e bcbd
000001c0: 68fe 90bd d41d c43d aa48 e3bd bc70 bc3d
000001d0: 2971 3ebd f0d4 0cbd 66b1 d33d c364 c43d
000001e0: bb26 c7bd 0e14 9e3d d28d 4fbe 1f71 393e
000001f0: c703 38be fb4b 89bd e6e2 4bbe 5396 273e
00000200: a5aa e1bd b825 23bd 75b6 0dbd 36a2 263e
00000210: e359 a73d d901 493d 4606 35be 8da9 aabd
00000220: d3c8 a83d 2c11 853d 8504 1d3e 0592 053c
00000230: e4ba 44be 73f4 4dbe eb8f f1bd 0fe2 70bd
00000240: db96 02be cefb 003d 6c26 2f3e 0ba1 453e
00000250: b188 0cbe d1b6 fe3d 1c38 6f3d ecae ce3d
00000260: 39d1 0bbe 89ec 593e 2891 fcbc cb4f 0f3e
00000270: bccc 3c3b cb7c 3bbe 197e e03d b7a0 de3d
00000280: 8829 34be 794a 393e 8bc7 d53d 9b2f f8bd
00000290: 961c 03bb 319d 493d e622 993d 3488 9abd
000002a0: 289f 46be b847 23be 3ff9 233e fb80 5e3d
000002b0: 4931 403d ba7c aebd e19b 2f3b eb40 173d
000002c0: 03a8 c53d d9c9 e2ba b57b bebc 9e06 e43c
000002d0: e5c5 a63c 327f 3a3e 9a38 04be 4644 1c3e
000002e0: b750 933d e3bd 0c3e 977a 1cbe 2f3c 0d3e
000002f0: 5ff2 373e bf32 17be 9840 3fbe 3c86 d13c
00000300: 9fcd 35be 45a8 36bd 0b51 f4bd 5df0 ec3d
00000310: 21dd 2b3e 1d47 a8bd 2e21 a63d 7cb8 a33c
00000320: eb39 233e 1d05 b1bd 0a12 5c3c 0e03 c93d
00000330: 98f6 193e 40e3 873d 871b 453e 9143 3e3e
00000340: e2be 873d 21ff ea3c 2d38 d33d 47c4 d23d
00000350: a035 8ebd 199e 3b3e a44b f0bd d920 0c3e
00000360: 9863 b33d b683 f23d 2d46 94bd 7427 683d
00000370: 4a9f e93d 1e62 2e3e 235d 923d 2067 54bd
00000380: 532b 0cbe 2f3a 57be 0b93 db3c 2f5e 9cbd
00000390: 9e83 d8bc bfab 8abc 2308 043e e334 3f3d
000003a0: aebd 843d 0602 9cbd 08b4 90bd c8ba cc3d
000003b0: 212f 12be 137a bc3d d907 df3d 7e56 46be
000003c0: 8d4e eb3d 8584 2fbe 2f5d d03d 2350 873d
000003d0: 354d 67bd 8661 bb3c 89be 463e 07dd a2bd
000003e0: 2f9d 9b3d c7f9 053d 135b 263e cf26 823d
000003f0: 296c 323e 304a 133e d34c aabd a6e9 853c
0.15051262 0.16116299 0.03461182 -0.0876576 0.01957925 -0.16979344 0.1417447 0.09613644
0.086842656 -0.16555315 0.11063292 0.018171057 -0.12077446 0.11435272 -0.19962355 -0.0072133876
0.05863745 -0.058488123 -0.16125178 0.18146504 0.17072575 -0.11164005 -0.09646074 0.12331343
0.04788574 0.13189875 0.1355742 0.084436566 -0.08149224 0.02115544 -0.13032532 -0.08933853
0.01850808 0.05653928 -0.18671654 0.14885779 -0.047064938 0.17164004 0.080598876 -0.056516867
-0.09016322 0.10612651 -0.010405242 0.046976212 -0.061030053 0.06543099 -0.13728657 0.07436015
0.11318005 0.023113571 -0.0954274 0.14737636 -0.12502837 -0.04719243 0.12091152 -0.06665554
0.15535915 0.003829247 0.056420192 0.0466001 -0.07151071 0.024644945 -0.083445095 -0.1528479
0.068470605 -0.20105815 0.10819255 0.10553534 -0.06403813 0.13743241 -0.051079694 -0.1376859
-0.1402153 0.03351713 -0.16554499 0.16081917 -0.047079958 0.03316575 0.019898985 0.20855069
0.08128293 0.0989693 0.18310219 -0.14888574 0.03743565 -0.0040387516 -0.03259566 0.19889091
0.11248916 0.21402173 -0.015255942 0.11941456 -0.15216981 0.038785625 -0.043194376 -0.07190196
0.08084728 -0.07783541 -0.028992668 0.14725322 -0.012825112 -0.08748798 0.107178405 -0.09246353
0.08085216 -0.12008199 -0.009794942 -0.12753871 0.113720514 0.06649188 -0.05772205 -0.09182424
-0.07079774 0.09576002 -0.11097844 0.0920119 -0.046494637 -0.03438276 0.103365704 0.09589531
-0.09724184 0.07718669 -0.20268944 0.18109559 -0.17970191 -0.06703945 -0.19910774 0.16365938
-0.11018876 -0.039830893 -0.034597833 0.16272816 0.081714414 0.049074028 -0.17678174 -0.083331205
0.08241429 0.06497416 0.15333755 0.00815249 -0.19211918 -0.20112781 -0.11795028 -0.058809336
-0.1275286 0.03149014 0.171045 0.19299714 -0.13724019 0.12437213 0.05840312 0.100919574
-0.13654031 0.21281637 -0.030830935 0.13995282 0.0028808555 -0.18309323 0.10961551 0.10870498
-0.17593968 0.18094815 0.104384504 -0.12118455 -0.0020006052 0.049222175 0.074773595 -0.0754551
-0.19396651 -0.15945327 0.16013049 0.054322224 0.046922002 -0.085198835 0.0026795792 0.036927145
0.09651186 -0.0017302587 -0.023252347 0.027835187 0.020358035 0.18212584 -0.12912217 0.15260419
0.071931295 0.13744311 -0.1528114 0.1379249 0.17963551 -0.14765452 -0.18676984 0.025576703
-0.1775422 -0.044594068 -0.1192952 0.11569283 0.16783573 -0.08216689 0.08111797 0.01998543
0.15940063 -0.086435534 0.013432035 0.09815036 0.15035474 0.066351414 0.19248782 0.18580462
0.06628205 0.028686108 0.10313449 0.10291343 -0.06943822 0.18322028 -0.11733177 0.13684405
0.087592304 0.11841528 -0.072399475 0.05667825 0.11407335 0.17029616 0.07146671 -0.05185616
-0.13688402 -0.21018289 0.026803514 -0.076351516 -0.026429947 -0.016927598 0.12893729 0.046681296
0.06481491 -0.076175734 -0.07065588 0.09996563 -0.14275791 0.09202971 0.10890169 -0.19368932
0.11489592 -0.17140396 0.10174023 0.06607082 -0.056470115 0.022873651 0.19408621 -0.07952314
0.0759834 0.03270891 0.1624568 0.063550584 0.17424072 0.14383769 -0.08315434 0.016346764

dense2.bias f4 [24]
00000000: 2565 44be d417 40be 7330 253d 3e0d 543e
00000010: 02a5 ca39 3478 37bd 9d01 253e 2646 543d
00000020: 22f4 1e3e 5f01 c23d adc7 153e 1903 033d
00000030: 1607 03be d112 20be fc5d 97bd de61 e73d
00000040: 6e38 983d 6404 c8bd d3f7 acbd c9f9 763c
00000050: 7e56 33be 29b6 d0bd 4bda 5e3d 9e5c 0cbe
-0.19179209 -0.1875909 0.040329408 0.20708176 0.00038651383 -0.04479237 0.16113897 0.05182471
0.15522817 0.09472918 0.14626952 0.031985376 -0.12795672 -0.15632178 -0.07390973 0.112979636
0.07432638 -0.097664624 -0.08445706 0.015074202 -0.17513463 -0.10190994 0.0544074 -0.13707206

dense3.weight f4 [2, 24]
00000000: 6e4f 22be 5704 39bd 7b6c d2bd 2c80 563e
00000010: 7b8f 0bbe 6465 24bd f42c 2e3e a9ea 0abd
00000020: e40c 71bd 44e1 cdbd 624e 343e 36ce 5abd
00000030: 3d9a db3d e553 b7bd b9c3 3c3b ef98 373e
00000040: bbde 2a3e b9d1 febd b32a d3bd fe11 31be
00000050: 04d1 debd 3acf 613e a5f0 4dbc 3012 f7bd
00000060: c46c a83c b079 01be 170f 19be 34f5 3d3e
00000070: ac02 c0bd cbe1 0b3e 084b ba3d 3e86 69bd
00000080: e7a2 383e 0eb9 a73d 28d8 e33d c4b1 1abe
00000090: df59 dd3d 0d5e 4a3e 7c2a 253e 7633 22be
000000a0: 9d0d bf3d 8f3b 653c 51e8 203e 5832 f63d
000000b0: 443b 38be ca06 35bd d8a9 9b3d e22f 4a3e
-0.15850613 -0.045170154 -0.10274597 0.20947331 -0.13628952 -0.040135756 0.17009336 -0.033915196
-0.058850184 -0.10052732 0.17608026 -0.053419314 0.10722778 -0.089515485 0.0028803183 0.17929433
0.16686527 -0.12442345 -0.103108786 -0.1729202 -0.1087971 0.22051707 -0.012569581 -0.12064016
0.020559676 -0.12644076 -0.14947163 0.18550569 -0.093755096 0.13660352 0.09096342 -0.05701279
0.18030892 0.08189593 0.11125213 -0.15106875 0.10808157 0.1976244 0.16129488 -0.15839943
0.093287684 0.013991251 0.15713622 0.12021321 -0.17991358 -0.044195928 0.076007545 0.19744828

dense3.bias f4 [2]
00000000: db8f 263e 7cc2 aebd
0.16265814 -0.08533189
