NN_trained_params.pt (torch, 21100 bytes, 6 tensors)

fc1.weight f4 [64, 4]
000000 6f d9 84 3c 56 da 99 bd 62 a5 07 3f 81 2b df 3c
       0.016216962 -0.075123474 0.5298673 0.027242424
000010 6e 7e 1b be 0f 39 02 3e 24 56 13 bd 00 52 e5 be
       -0.15184948 0.12717079 -0.035970822 -0.44789124
000020 73 8c 2c 3f 5e 77 a4 be 2a a7 d6 bf ce 65 cd be
       0.6740181 -0.3212232 -1.6769764 -0.40116733
000030 3f ac 18 3e 96 2d 51 be fe f8 9b be 38 1d 08 3e
       0.14909457 -0.20427546 -0.30463403 0.13292396
000040 7d 4c 14 3f 4f cd 74 3e 31 76 e7 3d c4 91 ec 3e
       0.5792921 0.23906444 0.1130184 0.4620496
000050 f3 1b e1 be 2e 28 9f be 51 53 0e bf a0 89 b9 bd
       -0.43966636 -0.31085342 -0.5559588 -0.09059453
000060 d3 8a dd 3e 43 d8 fd bc 37 93 ab bb 5d 04 89 3d
       0.43269977 -0.03098691 -0.0052360552 0.06690285
000070 05 0c 0c 3d 3e 8b 3f be 94 b5 90 3f 03 47 b6 3e
       0.03419115 -0.1870546 1.1305413 0.35601053
000080 3d c2 25 bf 0c 86 13 be 17 7c 81 3f 1a e9 b2 3e
       -0.6474951 -0.14406604 1.0115994 0.34943467
000090 f2 8f 26 bf bc 41 b3 3e 57 f2 d5 3f e6 cd d1 3e
       -0.65063393 0.3501109 1.6714581 0.409774
0000a0 ed cf d4 bc 7c a4 81 be f3 5e 2d 3f 56 19 3f 3e
       -0.025978053 -0.25320804 0.67723006 0.18662009
0000b0 e1 5e 45 bf 5c 9a 10 3f 0f fb 85 3f f6 3b d3 3d
       -0.770979 0.56485534 1.0467242 0.10314171
0000c0 8e cb cf 3e d3 02 c6 bc a6 26 d1 bf 3f 36 76 be
       0.40584987 -0.024171269 -1.633992 -0.2404413
0000d0 90 de b3 3e 78 5b 22 be d2 66 e1 3e e6 de 7c be
       0.3513074 -0.15855205 0.44023758 -0.24694404
0000e0 a1 cd b0 3c 0c bb 08 3c 03 4c bd 3f 70 f2 39 3e
       0.021582427 0.008345377 1.4788822 0.18158889
0000f0 98 82 9e bc 5d ef ba be 20 db 25 bf fe 4a 1b 3e
       -0.019349381 -0.36510745 -0.64787483 0.15165326
000100 d4 95 d4 be 65 cd 2b 3e 8f b3 a4 3e 32 b4 ae 3e
       -0.4152056 0.1677757 0.32168242 0.34121853
000110 e0 8e 19 bf 66 d4 da be 3c 37 08 be 3e 63 c6 be
       -0.59983635 -0.42740172 -0.1330232 -0.3874759
000120 af e1 22 bf 95 25 93 3e 8f 55 90 3f f0 ce e0 3e
       -0.63625616 0.2873961 1.127611 0.4390788
000130 be d2 1f 3f b4 a3 c7 3e e4 af 46 3f 13 4a 8b 3e
       0.6243094 0.38992083 0.7761214 0.27204952
000140 e5 1f 93 3e ab 2b c1 3d a2 3e 60 bf 9d b4 91 be
       0.2873527 0.09432157 -0.8759557 -0.2845811
000150 ab 63 df be 71 7f 7c 3e a3 ce 4c 3f 09 9c 99 be
       -0.43630728 0.2465799 0.800028 -0.30001858
000160 b2 7e 30 be 59 7f 54 be 95 26 6f 3f 0f fb 03 bf
       -0.1723583 -0.20751704 0.93418247 -0.5155496
000170 1c 29 0f 3f ea e1 b8 be 7b 7f 9c bf 9a bf ef be
       0.559221 -0.3610986 -1.2226404 -0.46825868
000180 00 07 21 3d c3 83 e7 3c a2 7b 0a bf 8c a6 bc 3e
       0.039313316 0.028261071 -0.540949 0.36845815
000190 db 68 62 bf 31 ef 48 3e 59 65 06 bf 49 eb b1 bd
       -0.88441247 0.19622494 -0.52498394 -0.08687455
0001a0 a1 2f 95 3e b1 e9 98 3e 56 0c 2a 3f f9 bf 28 be
       0.291379 0.29865792 0.66425073 -0.16479482
0001b0 72 5e fc be 78 b2 a5 be bd c8 4b 3d 04 3d 49 3e
       -0.49290806 -0.32362723 0.049751986 0.19652182
0001c0 bb 3d 54 3e 52 61 43 bc 76 4c ee 3d 00 9b ff be
       0.20726673 -0.011925058 0.116356775 -0.49922943
0001d0 29 b6 88 3e c0 93 c3 be 63 eb 29 bf 24 61 25 3e
       0.26701477 -0.38198662 -0.66374797 0.16150337
0001e0 15 ab 1c 3e 41 27 fd 3e b4 3f b2 be bd 13 b4 3e
       0.15299638 0.4944401 -0.34814227 0.3517131
0001f0 4a 4e b8 3e 33 30 e2 bd 0b a2 5f be b1 c0 3b bd
       0.3599723 -0.110443495 -0.21839158 -0.04583806
000200 a9 13 c0 be 82 af ab be 05 ca 9f 3f e0 0a a6 3e
       -0.37515 -0.3353234 1.2483526 0.32430172
000210 a9 5f ac bc 5f a0 cf 3e df ce 3c 3e 7c 0a 30 be
       -0.021041708 0.4055204 0.1843829 -0.171915
000220 7f 21 31 be bf 86 42 3e be 33 46 be 1a 66 db 3d
       -0.17297934 0.18996714 -0.19355676 0.10712834
000230 7e b9 19 3f 62 f3 b7 3c ee 4f 48 be 6f d8 c6 be
       0.60048664 0.022454921 -0.19561741 -0.38837
000240 00 39 00 3b 68 e4 e4 3d 38 8e c0 3e e0 9b f8 3c
       0.0019565225 0.111763775 0.37608504 0.030347764
000250 1a b9 e1 3e 5a df 50 3e 70 be 69 3f d2 08 d7 3e
       0.44086534 0.20397702 0.9130621 0.41998917
000260 15 48 f2 3c 9e e2 09 3f 60 66 7d bf f8 30 ae be
       0.029575387 0.53861415 -0.98984337 -0.34021735
000270 8a a8 57 3e 07 41 34 be a2 33 04 3f 2a 8b 9c be
       0.21060386 -0.17602931 0.51641285 -0.30574924
000280 6c 53 4b be 34 da 10 3e 57 19 08 40 bf 53 99 3e
       -0.19856042 0.14145738 2.1265466 0.29946706
000290 c5 29 63 3e c4 26 dd bd b6 41 f5 3f ca 75 a6 3d
       0.22183903 -0.107984096 1.9160678 0.08127935
0002a0 a0 2b 88 be 3b 1c e5 bd 70 5d c7 bf 31 d2 9f be
       -0.26595783 -0.11187025 -1.557539 -0.3121505
0002b0 38 21 48 be 1a 79 bb be b4 dd 19 3f 96 31 f9 be
       -0.19543922 -0.3661583 0.6010392 -0.48670644
0002c0 f0 a6 2c bf 2f ad de be 41 72 67 3f 8d 3e 9d be
       -0.67442226 -0.43491504 0.9040871 -0.30711785
0002d0 58 79 fc be a7 99 c9 bc e0 24 94 3f 0c de 6d bd
       -0.49311328 -0.0246094 1.1573753 -0.05807309
0002e0 65 75 3d 3e b0 aa 97 be 31 8d 54 bf be 93 a1 3d
       0.18501814 -0.29622412 -0.8302794 0.07889508
0002f0 1e d6 4b be cd 7e 7e be aa 96 34 bf 4b 7f a6 3d
       -0.19905898 -0.24853058 -0.70542395 0.08129748
000300 f0 b5 79 3e d1 6e 93 be 94 26 69 3e 40 88 9f 3e
       0.2438581 -0.28795484 0.22768623 0.31158638
000310 8f c8 51 3e 4c 3b 7f 3e 07 25 78 3f 76 40 5b be
       0.20486663 0.24924964 0.969315 -0.21411309
000320 37 6a 0c 3e 18 d9 a0 be 60 aa 35 3f 71 ef 70 be
       0.13712393 -0.3141563 0.70963097 -0.2352884
000330 7e 07 ab 3e e8 22 7a be 2a 2c a9 3e 90 7c 84 be
       0.33404154 -0.24427378 0.33041507 -0.25876284
000340 23 f3 17 3f 64 3d c7 b9 96 eb c5 bf 09 22 2e be
       0.5935537 -0.00038001977 -1.546252 -0.17005171
000350 d0 c8 6c 3e 80 4c cd be 57 69 98 3e b2 9b 8d be
       0.23123479 -0.40097427 0.29767868 -0.2765785
000360 41 9a cd be df 38 71 be 30 48 8b bf a8 3f 14 be
       -0.4015675 -0.23556851 -1.0881405 -0.14477408
000370 9a 49 12 3f 6d f9 50 be c9 f2 02 bf cd 8d 9d 3e
       0.5714356 -0.20407648 -0.5115171 0.30772248
000380 17 49 37 3f ca 5b bb be 69 4c ba be fc d4 8d 3c
       0.715959 -0.36593467 -0.3638642 0.017313473
000390 c2 e9 4b 3f aa bf 44 3d 59 15 90 3f 3d cf 06 be
       0.7965356 0.048034348 1.1256515 -0.13164993
0003a0 da 28 8d bb dd b0 27 be 1f 85 05 c0 6f f9 ad be
       -0.0043078484 -0.16376062 -2.08625 -0.33979365
0003b0 81 c7 d1 3e 28 61 18 3e a7 96 7a bf 43 58 4d 3e
       0.40972522 0.14880812 -0.9788613 0.200532
0003c0 b9 ec 8e 3e bc 0a dd 3e 2e 53 6c 3e 71 ad fa bd
       0.2791498 0.43172252 0.23078606 -0.122401126
0003d0 34 b0 a5 be 23 c9 a1 3e 22 0f 3f bf 9f fb da bd
       -0.32360995 0.31598768 -0.74632466 -0.10692524
0003e0 37 df e6 bd 01 90 05 bf 37 fb fc be 41 59 d2 3c
       -0.112730436 -0.5217286 -0.49410412 0.025677325
0003f0 08 d6 10 bf 7b 53 29 3d f7 f4 8f 3f 1a 15 26 3e
       -0.56576586 0.04133938 1.1246632 0.16218987

fc1.bias f4 [64]
000000 a9 03 23 3e 2e 6f 76 3e 7c 8f e3 be 2a 5a a0 be
       0.15919365 0.24065849 -0.44445407 -0.3131879
000010 de dc 71 3e f7 80 fa 3e b5 ac 03 bf c2 36 d6 be
       0.2361941 0.48926517 -0.51435405 -0.41838652
000020 42 28 05 bf b1 13 83 bd c7 3d f9 bd 35 9f 15 bd
       -0.52014554 -0.0640024 -0.12169986 -0.036528785
000030 00 cf ca be 5d 73 00 bf a4 1e f0 3e 1c d9 38 be
       -0.39611053 -0.5017603 0.46898377 -0.1805157
000040 d8 37 08 3f ad b3 c0 be 27 6b 1b 3f 58 bc 1b bc
       0.5321021 -0.37637082 0.60710377 -0.009505354
000050 48 08 c4 3e 81 7c 1b be d1 2f c5 3c 60 1c 1c 3f
       0.38287568 -0.15184213 0.024070652 0.60980797
000060 96 bc ee bc cc f7 07 be 83 3e 7c 3e bd b3 1e bf
       -0.02914266 -0.13278121 0.24633221 -0.6199301
000070 30 9d e5 3e b9 bf 79 be 7d 6e b9 3e e3 5f 98 be
       0.44846487 -0.24389543 0.36217108 -0.29760656
000080 bb ca 76 be 7b f9 07 3f 50 f1 92 be d4 d4 70 3e
       -0.24100773 0.5311505 -0.28699732 0.23518687
000090 66 e8 a9 be c7 39 9d be 76 d1 11 bd 2f 90 03 3f
       -0.33185118 -0.30708143 -0.03560015 0.5139188
0000a0 e6 f0 dd be 6a 14 8f be 64 5b 8e be 0c cd d2 bd
       -0.43347853 -0.27945262 -0.278041 -0.10293016
0000b0 d9 d8 ee 3e b7 90 ae 3e b6 39 30 bd c0 5d da 3e
       0.46649817 0.34094784 -0.043023787 0.4264965
0000c0 03 2a 8e be c1 09 b3 3e 3f 8e b7 3e c8 97 c1 be
       -0.27766427 0.3496838 0.35850713 -0.37811112
0000d0 51 66 91 be 0c 08 a3 be 14 02 40 3e 15 98 59 3d
       -0.28398374 -0.31842077 0.18750793 0.053123552
0000e0 e1 c0 2a 3e f2 2b 0a 3e b3 76 eb be a5 8f 8d 3e
       0.1667514 0.13493326 -0.45988998 0.27648655
0000f0 a8 ae fb be 10 19 09 3f ec 17 23 3e 60 25 20 be
       -0.4915669 0.5355387 0.15927094 -0.15639257

fc2.weight f4 [64, 64]
000000 34 70 70 3d fc d7 12 bd 28 6f eb 3d 40 44 56 3c
       0.058700755 -0.03585051 0.11495811 0.0130777955
000010 17 4f 9a bd f1 0b ed bd 04 91 79 bd 9a 57 e7 bd
       -0.075346164 -0.11574543 -0.060929313 -0.112960055
000020 40 a5 6a 3d c6 77 c0 bc ae 4e 93 bd f0 f5 c7 bd
       0.0572865 -0.023494612 -0.07192741 -0.09763706
000030 aa ac ee 3d 34 8d 59 bd 43 c0 d2 3d 4c be 02 bd
       0.11654027 -0.053113177 0.10290577 -0.031919762
000040 7f b6 f6 bc 40 bf a5 bb 5b a3 12 3d a8 5f 09 be
       -0.030116318 -0.005058199 0.03580032 -0.13415396
000050 c1 24 e0 bd 06 fc 4a 3a 98 19 b0 bd 98 3c 97 3c
       -0.1094451 0.0007743243 -0.085986316 0.01846151
000060 c4 b6 bc bd 20 47 36 bc d5 12 a4 3d a0 9e 5f bd
       -0.09214547 -0.011125356 0.080114044 -0.054594636
000070 6b 5c 31 3c 5a c8 c7 3d ff b5 06 be bc c2 c1 bd
       0.010825257 0.09755011 -0.13155364 -0.09460971
000080 74 81 b6 3d bb a4 c4 3c c8 4d 8a 3c a7 07 e1 bd
       0.0891141 0.02400433 0.016882792 -0.10987788
000090 52 e7 a9 3d 9a 2a de 3d 0f 02 a1 3d 4e 30 e1 bd
       0.08296074 0.10847969 0.07861721 -0.109955415
0000a0 10 0f 5a bd 2e 1f a4 3d 45 42 de bd 21 6f 55 3e
       -0.05323702 0.080137596 -0.10852484 0.20843174
0000b0 0a ea 8c bd bc d9 26 bb cc 63 7d 3d da 55 8d bd
       -0.06880577 -0.002545937 0.06186275 -0.069011405
0000c0 14 78 15 3d 7f 78 ca 3c 44 03 ce 3d 40 ea 4c 3c
       0.03649147 0.02471566 0.100592166 0.012507021
0000d0 28 23 06 3c c0 18 84 3d 21 bd cb bd b2 a9 99 bd
       0.008187093 0.06450033 -0.09948183 -0.0750307
0000e0 9c ca 83 bc 23 a0 0c 3d bb 10 48 3d d4 d0 c0 bd
       -0.016087823 0.034332406 0.04884408 -0.09414831
0000f0 e5 13 cf bd 3b ad d0 3d 47 95 9e 3c 80 85 d6 3a
       -0.101112165 0.10189291 0.01935829 0.001636669
000100 f2 03 10 3e be 8c b0 bd 34 0d aa 3d f0 27 82 be
       0.14064005 -0.086205944 0.083032995 -0.25421095
000110 62 98 3f 3c 7b 42 8e bd 48 16 a2 bc 22 68 54 3b
       0.011694046 -0.06946274 -0.019786015 0.00324107
000120 26 62 a9 bd 64 5f fe 3d e0 2a b3 bd 82 d6 d3 3e
       -0.082706735 0.12420538 -0.08748412 0.41374594
000130 90 fc 68 bd 68 4c b6 bc 18 f6 13 3e 0a 58 96 be
       -0.056881487 -0.02225323 0.14449346 -0.29364043
000140 69 24 8c bd 00 39 27 bf 32 5c b4 3b 38 b8 8d bd
       -0.06842882 -0.6532135 0.0055041546 -0.069199026
000150 df 48 8f be e2 c9 af be 66 a0 8e bf 3c 7e 5e bf
       -0.27985284 -0.34333712 -1.11427 -0.8691137
000160 5c 8c 3a be b1 30 e8 be 77 cf e7 bc e0 f8 af be
       -0.18217605 -0.4534965 -0.02829717 -0.34369564
000170 60 b4 47 be 15 92 a0 be ca cc b1 bd bc 69 8a 3d
       -0.19502401 -0.31361452 -0.086816385 0.067584485
000180 f2 82 16 3e 84 2d bf bd a6 21 be bd 55 22 b1 be
       0.14698389 -0.09334853 -0.09283762 -0.34596506
000190 a6 a5 89 3d 30 8d bc bd e8 81 43 bc 24 65 00 3d
       0.06721048 -0.09206617 -0.0119328275 0.031346455
0001a0 18 46 44 3f 33 24 34 3f e2 af 9c be c3 0e 9b be
       0.76669455 0.70367736 -0.30602938 -0.302847
0001b0 aa fa 9d 3d 9d 8a 3c 3e c7 e7 48 be 6d 6b 2e be
       0.07713826 0.18412252 -0.19619666 -0.17033167
0001c0 b7 f9 34 be 5a 95 28 3b 5a b8 f9 3d 44 46 f1 3d
       -0.17673384 0.0025723786 0.121933654 0.1178098
0001d0 63 fc 38 be 20 f4 17 bd 61 14 8d 3d a6 94 16 bd
       -0.18065028 -0.03709805 0.068886526 -0.036762856
0001e0 00 3d 3f be 16 b7 be 3e 1d bd 24 bd b8 2e b3 be
       -0.18675613 0.37249058 -0.040219415 -0.3499658
0001f0 f6 38 ed bd 88 22 0a be 88 bd 22 be 2f 59 80 3e
       -0.1158313 -0.13489735 -0.15892613 0.25068042
000200 00 08 83 3d 49 b0 07 bd e3 78 96 bf b5 a9 0b 3e
       0.0639801 -0.033127103 -1.1755642 0.13638957
000210 03 fb af 3d 23 64 13 3e c4 be 26 bc 6e 5e 03 bf
       0.085927986 0.14393668 -0.010177318 -0.51315963
000220 89 57 0d bf 22 e1 8b 3d 18 ac b2 bd 66 9a 3a be
       -0.55211693 0.0683005 -0.087242305 -0.18222961
000230 05 f4 b7 be 82 29 5c bc f9 d5 13 be 2e cc 5a 3e
       -0.3592836 -0.013437631 -0.14437093 0.21366951
000240 7d df 38 3e f6 5e 2b be 3a e5 87 3d ca 08 f2 bd
       0.18054004 -0.16735443 0.06635518 -0.11818083
000250 19 d5 ff bb 2e 9f ca bc db aa 89 3c 6c ec 98 3e
       -0.0078073856 -0.024734106 0.016805103 0.29867876
000260 09 12 2a 3c 81 dd e3 be d8 47 4c 3e 02 4f 57 be
       0.0103802765 -0.44504932 0.19949281 -0.21026233
000270 9f ed 80 3e 5c 95 0a 3e 73 00 a2 3d 32 58 9d bd
       0.2518129 0.13533539 0.07910242 -0.076828375
000280 43 05 7d bd 9e cf 61 3e 7b 4c 72 bd 12 12 e0 3d
       -0.061772596 0.22051856 -0.05915497 0.10940947
000290 9e ae f4 3d 8a f9 02 bf dc 47 09 3d 4f 65 5f 3e
       0.11947368 -0.51162016 0.033515796 0.2181599
0002a0 26 f3 f6 bf 3d 5b cf bf 4c 64 d9 be 71 73 63 3c
       -1.9292953 -1.6199719 -0.42459333 0.013882504
0002b0 18 3d 84 3d b1 46 c7 3d 84 c6 f3 3c c4 ea 39 3e
       0.06456965 0.0973028 0.029757746 0.18155962
0002c0 ad c7 1b be 2d 68 4f 3e 83 0d 81 3e 68 c9 b3 3c
       -0.15212889 0.20254584 0.2520562 0.021946624
0002d0 e1 7e 83 3d 29 b4 10 3d 6c a9 70 bd ab 6f 2e bd
       0.064206846 0.035328064 -0.058755323 -0.042586964
0002e0 67 ac 64 3d 18 a7 60 bd 90 d5 55 bf 10 6a 38 3e
       0.05582848 -0.054846853 -0.83528996 0.1800921
0002f0 c3 fb ce 3d 4a b8 6d 3e b4 08 09 3e 7b 46 b4 bd
       0.101066135 0.23214832 0.13382226 -0.088025056
000300 77 fb 01 3b a9 62 a9 3d ec 1a 64 3d 79 2c a0 bd
       0.0019833723 0.08270771 0.055689737 -0.078209825
000310 b5 ad 7f 3d 41 01 5a 3d 30 2a 2e bd 02 3f ea bd
       0.06242152 0.053223852 -0.042520702 -0.11437799
000320 d8 4a 13 be 1c dc 8f bc 63 aa 6f 3c 0c 4d 87 3d
       -0.1438402 -0.017561011 0.014628026 0.066064924
000330 b4 89 5c 3c 88 d7 7e 3d d8 31 9d 3d e6 83 22 be
       0.013460565 0.062217265 0.076755226 -0.15870628
000340 d8 d8 26 bb 17 64 9b bd 56 18 c4 bd 57 cb 0d be
       -0.0025458839 -0.0758745 -0.09574954 -0.13847099
000350 fe d9 22 be f0 33 d8 bd a2 9b e1 bd 52 3c dd bc
       -0.1590347 -0.10556781 -0.11016013 -0.027006302
000360 95 fb 07 bd 03 fe 03 3e a3 e7 59 3c a9 ff 5d 3c
       -0.03319891 0.12889867 0.013299855 0.013549724
000370 f6 86 d2 bd af f8 3d bd 5a 58 9b 3d 36 9f b3 bd
       -0.10279648 -0.04637974 0.07585211 -0.087706015
000380 17 b4 9e bd c2 50 2c bd 00 7c a2 39 ec 0c 1f 3c
       -0.07749193 -0.042069204 0.00030991435 0.009707671
000390 30 4c 81 3d 4f 08 e8 3c fe 4a 11 be b2 4c 02 be
       0.0631336 0.028324274 -0.14188763 -0.1272457
0003a0 ef 7b 04 3e 0b 2d 53 3d 59 ab 6c 3c 18 52 b0 3d
       0.12937902 0.05155663 0.014445149 0.08609408
0003b0 83 05 fb 3a 34 1a 79 bd 59 7c 39 bc f4 d7 6f bd
       0.0019151423 -0.060816005 -0.011321151 -0.05855556
0003c0 be 94 dd bd 7b 74 b7 3d b7 12 16 3d 60 d3 f1 3c
       -0.10819386 0.08957764 0.03663894 0.029519737
0003d0 e3 96 40 3c f4 a6 c8 bd f3 c8 88 bd 76 73 c0 bd
       0.011754724 -0.09797469 -0.06678953 -0.093970224
0003e0 63 f7 0a be f4 59 bf 3d a3 f1 ff bc 05 c1 83 bd
       -0.13570933 0.09343329 -0.031243151 -0.064333
0003f0 26 dd c9 bc 98 dd 91 3a 04 c5 76 bc 66 58 29 be
       -0.024641585 0.0011128662 -0.015061621 -0.16537628

fc2.bias f4 [64]
000000 56 eb 87 bd 9c ed 80 bd 9d a6 82 3e c4 5d 06 be
       -0.06636684 -0.062953204 0.2551774 -0.13121706
000010 cc e4 1b 3d 40 8c a8 3c 3a f0 79 bd e9 77 74 3e
       0.038059995 0.020574689 -0.061020114 0.23873867
000020 33 be eb bc 63 d3 7a 3e 0a f1 8d 3c df 9c 91 3e
       -0.028777217 0.244947 0.01732685 0.28439996
000030 66 f4 7c 3e e2 6b fd bd 9d 34 1a bc e2 d0 7a 3d
       0.24702606 -0.12374093 -0.009411958 0.061234362
000040 26 0a 58 3d 08 ed 75 3e e9 c1 a6 3e 71 bf 53 be
       0.052744053 0.24016201 0.32569817 -0.20678498
000050 7d 9e 00 3e 00 c5 86 bd 17 2f c7 bd 44 04 3b be
       0.12560458 -0.065805435 -0.097257785 -0.18263346
000060 f0 4b 50 3e e9 cb d4 3d c9 95 90 bc 44 c9 4b 3d
       0.20341468 0.10390455 -0.017649548 0.04975249
000070 84 cc 92 3e cc d0 67 3e 9b 17 96 3e d2 bb 92 bd
       0.28671658 0.22638243 0.29314885 -0.0716473
000080 52 78 fe 3d 0d fc 59 3e c7 15 38 3e 65 62 a7 bd
       0.12425293 0.21287556 0.17977057 -0.08173064
000090 b2 e1 1d bd 1f 13 7a 3e e6 f0 fa bd db 6f 1b be
       -0.038545318 0.24421357 -0.12252979 -0.15179388
0000a0 fc 6f 8a bd 3e fb 90 3d 8d c4 7d 3e 13 c0 a4 3c
       -0.067596406 0.07079171 0.2478201 0.02011112
0000b0 ea 1f 1b be 6f ff 8b 3e 85 71 8f 3d d1 35 bc 3d
       -0.15148893 0.27343318 0.07004074 0.09189952
0000c0 94 4d 15 be 97 f9 23 3e f7 06 5a 3d 0b fb 3e be
       -0.14580375 0.1601318 0.0532293 -0.18650453
0000d0 e4 c1 c7 3a e5 53 01 be 62 0b a6 3d 3b 69 e0 3d
       0.0015240279 -0.1262966 0.0810764 0.10957571
0000e0 f4 04 94 3d fd 4f 75 3e e6 1a c1 3d d7 58 d9 3c
       0.07227507 0.23956294 0.094289586 0.02653162
0000f0 d6 72 3d bd 2c 93 e2 bd cb d7 37 bd f0 e4 63 bd
       -0.046252094 -0.11063227 -0.04488353 -0.055638254

fc3.weight f4 [2, 64]
000000 a5 d7 ce bd 0e a7 60 bc 6f 9e 8c 3e 3e dc 2e bd
       -0.10099725 -0.013711704 0.27464625 -0.042690508
000010 e5 46 19 bc 93 a7 25 bf 1c 0b d6 3b d2 55 89 3e
       -0.0093552815 -0.6470882 0.006532086 0.26823288
000020 2d 4a c7 bc 6e ee 51 3e c9 bf 6a be 23 5d 7a 3e
       -0.024327362 0.2050111 -0.22924723 0.24449591
000030 13 f7 9e 3e 6b 54 dc 3d 43 17 d3 3e 12 c0 ce bd
       0.31047878 0.10758289 0.41228685 -0.10095228
000040 ea 21 e7 3e e5 c8 75 3e b2 10 4e 3e 9b cf cc be
       0.45143062 0.24002416 0.20123556 -0.4000214
000050 a8 f4 98 3e f1 d0 74 bd 71 2b dc bf 4a 69 65 bf
       0.29874158 -0.059769575 -1.7200757 -0.89613783
000060 67 c0 a5 3e c6 36 a7 3e 00 8d 1a bf 6a ff d6 3b
       0.32373354 0.32658976 -0.603714 0.0065612094
000070 45 94 6b 3e 6d 32 74 3e e3 84 81 3e 64 1c 1a 3d
       0.23005779 0.23847361 0.25296697 0.03762473
000080 50 b3 0e 3c 49 d3 5d 3e 07 1d 9b 3e ad e7 90 bd
       0.008709744 0.2166263 0.30295584 -0.07075439
000090 1c 84 23 3d 9d fc 23 3e 72 4a cc 3d 4a 62 39 3f
       0.03992091 0.16014333 0.09975137 0.724156
0000a0 c0 ab d1 bd b7 b4 54 3e a2 86 62 3e 51 bd ce bd
       -0.10237837 0.20772062 0.22121671 -0.10094703
0000b0 f9 d1 0e bd 8f a9 63 3e 2c 6a 6d 3e c3 cb a2 3e
       -0.034868214 0.2223265 0.23185033 0.31796083
0000c0 6f f5 3b 3c 90 8c e8 3d 66 41 34 bf 70 b4 7e bf
       0.01147209 0.11354935 -0.7041229 -0.99494076
0000d0 1e 6b 86 3c 90 41 ca 3e f6 d6 70 3e 61 89 6c 3e
       0.0164085 0.39503145 0.23519501 0.23099281
0000e0 02 77 88 3d 70 5a 35 3e 3a 31 e7 bc 5f 96 6e bd
       0.06663324 0.1771028 -0.028221715 -0.058248874
0000f0 2d 9c f4 3d 80 c8 92 bb dd 1e 92 3d 59 74 f6 3d
       0.11943851 -0.004479468 0.07134793 0.1203391
000100 50 b3 5f bd ea c3 26 bf 72 a8 81 3e e3 a7 40 bd
       -0.054614365 -0.6514269 0.25323826 -0.04703511
000110 e6 ee 97 3e 69 60 80 3f 79 1e bc bd c7 92 88 3e
       0.29674453 1.0029422 -0.091855 0.26674482
000120 79 ca ef bb d5 13 6c 3e 67 e2 04 3e bb d5 59 3e
       -0.007317838 0.2305444 0.1297699 0.21272938
000130 30 2e 84 3e 59 3d 23 bd 9c c0 3b be bd 2e 2f bd
       0.25816488 -0.039853428 -0.18335193 -0.042769182
000140 09 c8 25 bf 0a ce 71 3e c6 35 57 3e 69 0a e2 bf
       -0.64758354 0.23613754 0.21016607 -1.7659427
000150 58 4c 86 be 07 f6 81 bd 68 85 19 bf 8f ed 59 be
       -0.2623012 -0.06345754 -0.59969187 -0.21282028
000160 03 7c 65 3d cf 45 d0 3e 8f 31 59 3d ae f8 c0 bd
       0.05602647 0.4067826 0.05302578 -0.09422432
000170 77 46 3d 3e 5b cb 68 3e 46 fb b3 3e 1b 86 51 3d
       0.18483911 0.22733824 0.35152644 0.051153284
000180 24 4e c2 bd 14 aa 70 3e 56 fe 89 3e d1 75 7f bd
       -0.094875604 0.2350238 0.26951855 -0.062368218
000190 bf 31 16 bc 6d 50 78 3e 84 56 21 3d 48 3e a9 be
       -0.009167134 0.2424943 0.03938915 -0.3305533
0001a0 ea f8 b7 3d c5 a7 52 3e 89 eb 72 3e cf 2f c6 bb
       0.089830235 0.20571811 0.23722662 -0.0060481797
0001b0 3f 24 25 3c 12 5b 5b 3e 86 cc 4e 3e 02 d0 5f bf
       0.0100794425 0.2142146 0.20195207 -0.8742677
0001c0 e7 4e eb bd 4d 52 85 3e 9e 5f de 3e 68 27 35 bf
       -0.11489659 0.26039353 0.43432325 -0.70763254
0001d0 5f b8 dd 3e 40 5f 13 be 87 46 30 be 2f 68 8f 3e
       0.43304726 -0.14391804 -0.17214404 0.28009173
0001e0 a9 cf e7 ba 8b 0c 2c 3e 96 84 91 3d 90 83 66 3d
       -0.0017685789 0.1680166 0.07105367 0.05627781
0001f0 24 27 c3 bd 52 5d e8 bd e0 8e 1f bd c6 60 d9 be
       -0.0952895 -0.113459244 -0.038954616 -0.42456645

fc3.bias f4 [2]
000000 eb c1 15 3e 88 f9 d8 3d
       0.14624755 0.10594469
